model/keypoint_classifier/keypoint_classifier.tflite (tflite, 6516 bytes, 6 tensors)

sequential_2/dense_8/BiasAdd/ReadVariableOp f4 [4]
0	0xbd85044b	-0.064949594
1	0x3e047a7d	0.1293735
2	0x3ebd867d	0.3701667
3	0xbeb22cdf	-0.3479986

sequential_2/dense_7/BiasAdd/ReadVariableOp f4 [10]
0	0x3e253d1a	0.1613659
1	0x3f14c0fc	0.5810697
2	0x3e2ae12b	0.16687457
3	0x3db8e061	0.09027172
4	0x3dd5fa53	0.10448136
5	0x3de62cf0	0.1123904
6	0x3f29de1d	0.6635454
7	0x3c8a7d16	0.016905349
8	0x3eca5a4b	0.39522013
9	0x3a16c89a	0.0005751938

sequential_2/dense_6/BiasAdd/ReadVariableOp f4 [20]
0	0xbf6870ae	-0.90796936
1	0xbf46c0f9	-0.776382
2	0xbea06d2d	-0.31333295
3	0xbf2620f9	-0.6489406
4	0xbe961991	-0.2931638
5	0xbe9fa82d	-0.31182995
6	0xbf3c8a77	-0.7364878
7	0xbf0d0646	-0.550877
8	0xbf122a56	-0.5709585
9	0xbef2c4d1	-0.47415784
10	0xbee44d77	-0.4459035
11	0xbedca9f2	-0.43098408
12	0xbf096952	-0.5367633
13	0xbebaf982	-0.36518484
14	0xbf396ef9	-0.72434956
15	0xbe956dc1	-0.29185298
16	0xbeee6f1a	-0.4656914
17	0xbefe9878	-0.497257
18	0xbf08e2b8	-0.53470945
19	0xbeb9543c	-0.36197078

sequential_2/dense_6/MatMul f4 [20, 42]
0	0xbe9c1879	-0.3048742
1	0xbe5eb0da	-0.21747151
2	0xbf3eb60e	-0.74496543
3	0xbe0f1fe4	-0.13977009
4	0xbe88061f	-0.2656717
5	0x3cc9b905	0.024624357
6	0xbe312845	-0.17300518
7	0xbe52b729	-0.20577683
8	0xbe134eb7	-0.14385496
9	0xbdf28610	-0.11841977
10	0xbe91fe59	-0.28514364
11	0x3e0b5bfb	0.13609307
12	0xbd41c6db	-0.047308784
13	0x3a8318d8	0.0010001911
14	0x3dc52ec7	0.09628063
15	0x3da5e3b5	0.08100072
16	0x3e12060f	0.14260124
17	0x3d2d94ab	0.04237811
18	0xbe3917c8	-0.18075478
19	0x3d8dd4c1	0.06925345
20	0xbd88cffb	-0.06680294
21	0xbe309e53	-0.17247896
22	0xbe6abe1e	-0.22924086
23	0xbf0f2c2c	-0.55926776
24	0xbeb80125	-0.35938373
25	0xbe231ced	-0.15929003
26	0xbe02576b	-0.1272866
27	0x3dadd053	0.08487
28	0xbc8a918a	-0.016915102
29	0xbddd3bd1	-0.10802425
30	0xbe221267	-0.15827332
31	0xbe368ba8	-0.17826712
32	0xbe7b2dcb	-0.24529187
33	0xbd0d3e6a	-0.03448335
34	0x3c1e24c3	0.009652319
35	0x3cea1a08	0.028576866
36	0x3d00412d	0.031312156
37	0xbd411e1d	-0.04714786
38	0x3e22ed7e	0.15910909
39	0x3e244392	0.16041401
40	0x3dfc4d18	0.12319392
41	0x3e6f17ae	0.23348877
42	0x3e61ce58	0.2205137
43	0x3bdc4d40	0.006723076
44	0x3db39d0a	0.08770187
45	0xbebfd879	-0.37469843
46	0x3e8cf0c7	0.2752745
47	0xbf08b986	-0.53408086
48	0x3d3ce0b9	0.04611275
49	0xbe85ced6	-0.26134366
50	0x3c1ef2f9	0.009701484
51	0xbe97cd9e	-0.2964906
52	0x3eb04dd8	0.3443439
53	0xbe1eaf57	-0.15496574
54	0x3d2f398f	0.0427795
55	0xbd1cd603	-0.038290035
56	0xbd75a983	-0.059976112
57	0x3e10827a	0.14112273
58	0xbe387dbe	-0.18016717
59	0x3dd50019	0.10400409
60	0x3dc0db84	0.09416869
61	0xbddab405	-0.10678867
62	0x3e4a6fd3	0.1976922
63	0xbde9e011	-0.114196904
64	0xbb02f9a8	-0.0019985233
65	0x3dd3fea6	0.10351305
66	0xbdd2ec87	-0.1029902
67	0x3e1189b5	0.14212687
68	0xbbe4fb56	-0.0069879694
69	0xbe375b33	-0.17905883
70	0x3d6fe615	0.058569033
71	0xbe8c4a7f	-0.27400586
72	0x3d239185	0.0399337
73	0x3da8ba6c	0.08238682
74	0xbd130594	-0.03589399
75	0x3e1b7dc7	0.15184699
76	0x3da76c33	0.08174934
77	0xbead9dc2	-0.33909422
78	0x3cff218e	0.03114393
79	0xbec116f6	-0.3771283
80	0x3d06ba54	0.03289254
81	0x3dde45ae	0.10853134
82	0x3ae6d0d9	0.0017609849
83	0x3e40c892	0.18826512
84	0xbe9858fa	-0.29755384
85	0x3e6cc9d0	0.2312386
86	0x3d488e80	0.048964024
87	0x3f39e216	0.72610605
88	0x3e04bbb6	0.12962231
89	0x3e8e95d0	0.27848673
90	0x3da61d35	0.081110395
91	0x3e3dc847	0.18533431
92	0xbe1bb3ed	-0.15205355
93	0x3d8b6502	0.06806375
94	0xbda40ff0	-0.08010852
95	0x3d80f97b	0.062975846
96	0x3d8f7c87	0.070061736
97	0x3dcf9efc	0.10137746
98	0x3d175b07	0.036952045
99	0x3d55c848	0.052192956
100	0x3cace4cf	0.021105198
101	0x3cb3abe7	0.021932555
102	0xbcf0930f	-0.029366998
103	0x3d0a05dd	0.033696998
104	0x3def1f0e	0.11675845
105	0x365ed820	3.320638e-06
106	0x3a7d93d3	0.00096732116
107	0xbdb315ee	-0.08744417
108	0xbe873801	-0.26409915
109	0xbf4d460a	-0.80184996
110	0x3bd8d823	0.0066175624
111	0xbd54bd02	-0.051938064
112	0x3ca223c8	0.019792452
113	0xbb8d11ce	-0.004305101
114	0xbdf16700	-0.11787224
115	0xbe18dbce	-0.14927599
116	0xbf3cf09a	-0.7380463
117	0xbf383e5f	-0.7197017
118	0x3dd9b4d7	0.106301956
119	0x3d42617f	0.04745626
120	0x3d8643bf	0.0655589
121	0x3d6da7be	0.0580213
122	0x3dad808d	0.08471785
123	0x3db1e508	0.08686262
124	0x3de29e3c	0.11065337
125	0x3d7b9169	0.06141797
126	0xbe61de9d	-0.22057576
127	0xbcc815d0	-0.024424464
128	0x3e896276	0.26832932
129	0x3e5d4357	0.2160772
130	0x3d3f2144	0.046662584
131	0x3d9b397c	0.07579324
132	0xbdf635bf	-0.1202197
133	0x3d3bcfb7	0.04585239
134	0xbe389a63	-0.18027644
135	0xbb9bfbfe	-0.0047602644
136	0x3e591e71	0.21203019
137	0x3e0c6b87	0.13712893
138	0x3dd1dfb7	0.10247748
139	0x3d19771d	0.03746711
140	0xbd42d312	-0.047564574
141	0x3c765806	0.015035635
142	0xbdd2d642	-0.10294773
143	0x3ca8636d	0.020555222
144	0x3dad6b7c	0.08467767
145	0x3d9654d4	0.073403984
146	0x3d32d70a	0.04366211
147	0xbcd0e58f	-0.025500087
148	0x3df86b16	0.121298
149	0xbe315563	-0.17317729
150	0x3f31806e	0.69336593
151	0xbf6fc5cb	-0.93661183
152	0x3c80b9d5	0.015713612
153	0x3d882374	0.06647387
154	0x3c479d7a	0.012183541
155	0xbd504c1a	-0.050853826
156	0x3e3f91db	0.18707983
157	0xbe52ed4a	-0.20598331
158	0x3f45e730	0.7730589
159	0xbf0a00f6	-0.53907716
160	0xbce0c3a6	-0.027437042
161	0x3d9af101	0.07565499
162	0xbda18190	-0.0788604
163	0x3d838995	0.06422726
164	0xbe0a6f52	-0.13519028
165	0x3dad6422	0.084663644
166	0xbdf7cab8	-0.120992124
167	0x3db11896	0.086472675
168	0xbe9c8eb7	-0.30577633
169	0x3d1a2268	0.03763047
170	0xbe7f53e7	-0.2493435
171	0x3ebe0dee	0.37120003
172	0xbd9dca6b	-0.07704624
173	0x3e955758	0.291682
174	0xbd0bd542	-0.034138925
175	0x3e4492cf	0.19196628
176	0x3e0f4279	0.13990201
177	0x3e1a46a2	0.15066007
178	0xbc0a73b8	-0.008450441
179	0xbe5a8c8e	-0.2134268
180	0xbb4e591c	-0.0031486219
181	0xbe6ba11f	-0.23010682
182	0x3ea49029	0.32141235
183	0xbef02688	-0.46904397
184	0x3ef06cec	0.469581
185	0xbef9036b	-0.4863542
186	0xbd8dfcfd	-0.06933019
187	0xbe441896	-0.19150004
188	0xbd3620a3	-0.04446472
189	0x3cd72813	0.026264226
190	0xbe18990e	-0.14902136
191	0x3e3cf03b	0.18451016
192	0xbe991fad	-0.2990698
193	0x3e4e335b	0.20136778
194	0x3db49410	0.08817303
195	0xbee6003b	-0.4492205
196	0x3be160c0	0.0068779886
197	0xbab5cbb7	-0.0013869916
198	0xbe03af32	-0.128598
199	0x3ea9da95	0.33174577
200	0xbe55d69e	-0.20882651
201	0x3e2998d6	0.16562209
202	0x3e62626f	0.22107862
203	0xbe9db2cd	-0.30800477
204	0x3d9f96e2	0.077924505
205	0x3c1fc10b	0.009750615
206	0xbcb337d0	-0.0218772
207	0x3e86ce7a	0.26329404
208	0xbd671555	-0.05641683
209	0x3e851e48	0.25999665
210	0x3e332d5e	0.17497775
211	0xbe89d340	-0.26918983
212	0xbe727173	-0.2367609
213	0x3ef075d2	0.4696489
214	0xbe0bba2e	-0.1364524
215	0x3ec56ab6	0.38557976
216	0x3e07e097	0.13269268
217	0x3dec2974	0.11531344
218	0x3eb77401	0.3583069
219	0xbe34f7b6	-0.17672619
220	0xbf30919d	-0.6897219
221	0x3c4ae1fe	0.012382982
222	0x3bf037ba	0.007330862
223	0xbd8638b9	-0.06553788
224	0xbe469408	-0.19392407
225	0xbe2fb78e	-0.17159864
226	0x3e2d026a	0.16895452
227	0xbe10a5da	-0.14125767
228	0xbed8b5b0	-0.42326117
229	0xbe2b8c13	-0.16752653
230	0x3df4df18	0.11956614
231	0xbe824b56	-0.25448102
232	0x3db5a608	0.088695586
233	0x3d3ca044	0.04605128
234	0xbd18bd1f	-0.037289735
235	0x3d7afc52	0.061275788
236	0xbeb6d11a	-0.35706407
237	0xbe82bd8c	-0.25535238
238	0x3e5cb1ba	0.21552172
239	0xbe05ea04	-0.13077551
240	0x3dee62f8	0.116399705
241	0x3e3a45c6	0.18190679
242	0xbd60b92d	-0.054864097
243	0x3dbaffe6	0.0913084
244	0xbe9d60fa	-0.3073805
245	0xbf11db68	-0.5697541
246	0x3dbb2af9	0.09139056
247	0xbd5b4a90	-0.053537905
248	0x3dd5fc05	0.104484595
249	0x3ea1b66a	0.31584483
250	0x3d8fb6fa	0.07017322
251	0x3eac2034	0.3361832
252	0x3e01a9b4	0.12662393
253	0xbdd4531e	-0.10367416
254	0x3f09dcd8	0.53852606
255	0xbe92cc1c	-0.28671348

sequential_2/dense_7/MatMul f4 [10, 20]
0	0x3f15b129	0.5847345
1	0x3f1a2ba4	0.6022284
2	0x3d4b9617	0.049703684
3	0x3e6cf4da	0.23140278
4	0x3e7f0d2a	0.24907365
5	0x3eb7e9f0	0.35920668
6	0x3da77589	0.08176715
7	0xbe0846df	-0.13308285
8	0xbf11e443	-0.56988925
9	0x3d4439ff	0.047906872
10	0xbea35f9a	-0.31908876
11	0x3da90c07	0.08254247
12	0xbf0f2e6b	-0.55930203
13	0xbe93c42f	-0.28860614
14	0x3e220285	0.15821274
15	0xbdce4071	-0.10070885
16	0x3deed75e	0.11662172
17	0xbeac3a88	-0.33638406
18	0x3e95d1ef	0.2926173
19	0x3e67b2ff	0.22626875
20	0xbec37930	-0.38178396
21	0x3e91e2b2	0.28493267
22	0xbf94def7	-1.1630543
23	0xbf5f6c35	-0.87274486
24	0x3e4ff411	0.20307948
25	0x3ef1a127	0.47193262
26	0xbddb6912	-0.107134
27	0xbdd9fff8	-0.10644525
28	0xbe99a9d6	-0.30012387
29	0xbf39bcb1	-0.72553545
30	0x3f4cd839	0.8001743
31	0xbeea23e5	-0.4573051
32	0x3e3accf7	0.1824225
33	0x3cf4927d	0.029855007
34	0xbe58b4af	-0.21162675
35	0x3ec724a7	0.3889515
36	0xbf285d38	-0.6576724
37	0xbefe0b4c	-0.49617994
38	0xbf309e95	-0.68991977
39	0xbf497c18	-0.7870498
40	0xbed73f37	-0.42040417
41	0x3f1910e6	0.5979141
42	0xbca379f3	-0.01995561
43	0x3d833ea6	0.064084336
44	0xbd2846cc	-0.041083142
45	0x3e60240b	0.2188875
46	0x3f288b58	0.6583762
47	0x3f51aafe	0.8190154
48	0xbda013e8	-0.07816297
49	0x3f08408a	0.5322348
50	0xbf078fd9	-0.5295387
51	0x3e93ffdb	0.2890614
52	0x3eb398c4	0.35077488
53	0xbeb28492	-0.34866768
54	0x3f1e2fd8	0.61791754
55	0xbeac8ab6	-0.33699578
56	0x3f021b7e	0.508232
57	0x3c91e28a	0.017808218
58	0x3d812abc	0.06306979
59	0x3dd1ccd7	0.10244148
60	0xbeda5fdb	-0.42651257
61	0x3e9f7b8d	0.3114895
62	0xbefb0b5f	-0.49032113
63	0xbea0693a	-0.31330281
64	0xbf0c9659	-0.5491691
65	0xbe6bc847	-0.23025618
66	0x3e314ca4	0.17314392
67	0x3db20b11	0.08693517
68	0xbed59d15	-0.41721407
69	0x3f0bd55c	0.54622436
70	0xbf7a524c	-0.97781825
71	0x3f1999a6	0.60000074
72	0x3dbad10c	0.09121904
73	0xbeb2bec6	-0.34911174
74	0x3befc68d	0.0073173703
75	0xbf448e52	-0.76779664
76	0x3ead3fdf	0.33837792
77	0x3e5a5c8e	0.2132437
78	0x3f3e4392	0.74321854
79	0x3eb8d555	0.3610026
80	0x3e98953e	0.29801363
81	0x3f2dd1c0	0.6789818
82	0xbd88da19	-0.06682224
83	0xbb2a2fa5	-0.002596834
84	0x3e0e6639	0.13906182
85	0xbdb8bb24	-0.09020069
86	0x3f405490	0.7512903
87	0x3f838ec9	1.027795
88	0xbaa0c1bd	-0.001226477
89	0xbd06bd18	-0.032895178
90	0xbf0d5474	-0.5520699
91	0x3cb51ebf	0.022109387
92	0x3f2719ea	0.65273917
93	0xbec73833	-0.38910064
94	0x3ed45af4	0.41475642
95	0xbd7fa5c1	-0.062413935
96	0xbe8ace58	-0.27110553
97	0x3db6b691	0.089215405
98	0x3f0ce331	0.55034167
99	0xbca714e4	-0.020395704
100	0x3f52c3d8	0.82330084
101	0x3e12d2d4	0.14338237
102	0x3f5d2684	0.86386895
103	0x3f3b23a2	0.73101246
104	0xbc78f36c	-0.015194755
105	0x3eca7b2c	0.39547098
106	0x3ecea196	0.40357655
107	0x3dfa0d34	0.122095495
108	0x3f669fd8	0.9008765
109	0x3eb57ca4	0.35446656
110	0x3efaffff	0.49023435
111	0x3af8d961	0.0018985682
112	0x3e491818	0.19638097
113	0x3e877a73	0.2646061
114	0xbf048b63	-0.5177519
115	0x3f014348	0.5049329
116	0x3d1792a5	0.037005085
117	0x3e5f20b6	0.21789822
118	0xbe1278d7	-0.14303909
119	0x3ebf683c	0.37384212
120	0x3e692f52	0.22771958
121	0x3ef7aca5	0.48373905
122	0xbea31090	-0.31848574
123	0xbe71e14a	-0.23621097
124	0x3f128321	0.57231337
125	0x3f406269	0.7515016
126	0x3e06091d	0.13089414
127	0xbf1c3dde	-0.610319
128	0xbea93218	-0.3304603
129	0xbea38aa3	-0.3194171
130	0xbe47a893	-0.194979
131	0xbf4ad787	-0.7923512
132	0x3ec069fa	0.37580854
133	0x3f317e36	0.6933321
134	0x3eef9ac3	0.4679776
135	0x3e342af0	0.17594504
136	0xbf29d322	-0.6633779
137	0xbf2b23c7	-0.66851467
138	0xbe85408d	-0.2602581
139	0xbdacd064	-0.08438185
140	0x3dfbe0b3	0.12298717
141	0x3e87519a	0.26429445
142	0xbf75e3da	-0.960508
143	0xbf471804	-0.7777102
144	0xbcd0d672	-0.02549288
145	0x3ca25238	0.019814596
146	0x3e7d87f2	0.2475889
147	0xbdd789f0	-0.10524356
148	0xbe48a6e1	-0.19594909
149	0x3f09757e	0.53694904
150	0xbea218c8	-0.31659532
151	0xbe3e5eee	-0.185909
152	0x3bfc786b	0.0077047846
153	0x3ca4aa8b	0.020100852
154	0x3e0d4051	0.13794066
155	0xbd971c6e	-0.073784694
156	0x3ef2fa4b	0.47456583
157	0x3f3fb0b9	0.7487903
158	0xbec7bfba	-0.39013463
159	0x3ee3fc25	0.4452831
160	0x3e0bf536	0.1366776
161	0x3d89a33d	0.06720588
162	0x3ed09c01	0.40744022
163	0x3f628fa5	0.88500434
164	0x3f24cc22	0.6437398
165	0xbe71db41	-0.23618795
166	0xbe43cb58	-0.19120538
167	0xbe3e4131	-0.18579556
168	0x3f4323a1	0.7622624
169	0x3ed7573f	0.4205875
170	0x3fa7e1ef	1.3115824
171	0x3ed783d8	0.42092776
172	0xbdab7f43	-0.083738826
173	0x3fa9e7e2	1.327389
174	0xbee4f9dd	-0.4472188
175	0x3f1ca4f4	0.611892
176	0x3e721002	0.23638919
177	0x3e841a07	0.25801107
178	0xbdf152d2	-0.11783375
179	0x3e465814	0.19369537
180	0x3e6e7156	0.23285422
181	0x3dc021b8	0.09381431
182	0x3e7d1d0b	0.2471811
183	0xbf024424	-0.50885224
184	0xbbd072b2	-0.006361329
185	0x3d30c437	0.043155875
186	0x3da8e9de	0.082477316
187	0x3d7a0458	0.0610393
188	0xbf15ae78	-0.58469343
189	0x3f2f5ce3	0.6850111
190	0xbda1f6a7	-0.07908373
191	0x3f6278aa	0.8846537
192	0x3ba2cbc0	0.0049681365
193	0xbce2920a	-0.027657527
194	0xbe8368ff	-0.25666043
195	0x3d3d09c4	0.04615189
196	0x3f2586ac	0.6465862
197	0x3f1d0e88	0.613503
198	0x3e9b66f1	0.30351976
199	0x3e95f712	0.29290062

sequential_2/dense_8/MatMul f4 [4, 10]
0	0x3e28b954	0.16476947
1	0xbed3e7d6	-0.41387814
2	0xbe85c5ff	-0.26127622
3	0x3d27cbf5	0.040965993
4	0xbf9e1328	-1.2349596
5	0x3f001188	0.5002675
6	0xbf5aa29f	-0.8540439
7	0x3ebb93e0	0.36636257
8	0x3ea30a26	0.3184368
9	0x3f419133	0.7561218
10	0x3f7507d9	0.957151
11	0xbf5344da	-0.82526934
12	0x3f428008	0.7597661
13	0xbf18eee7	-0.59739536
14	0x3f1faff3	0.6237785
15	0x3e889a42	0.2668019
16	0x3e8e2a85	0.27766815
17	0xbf24c6d9	-0.6436592
18	0xbf3bb5c5	-0.73324233
19	0xbe0e6ee3	-0.13909487
20	0xbf79249a	-0.97321475
21	0x3f642a2d	0.89126855
22	0xbf422e66	-0.7585205
23	0xbe904e99	-0.28184965
24	0xbf49e81a	-0.78869784
25	0xbf2564e5	-0.6460708
26	0x3f837952	1.0271399
27	0xbf8ed145	-1.1157614
28	0xbe3a0940	-0.18167591
29	0xbfb70f03	-1.4301456
30	0xbe8fd772	-0.2809406
31	0xbf08681e	-0.5328387
32	0x3f5f9dca	0.8735014
33	0x3f8ba31d	1.0909153
34	0x3f247dd8	0.6425452
35	0xbf90d0e3	-1.1313747
36	0xbf2e69d9	-0.6813026
37	0x3f1edf8b	0.6205985
38	0xbfa69c8e	-1.3016527
39	0x3f4da72b	0.80333203
